code/model_best.pth.tar (torch, 181322 bytes, 37 tensors)

conv1.bias f4 [64]
0	0x3ed5345a	0.41641504
1	0x3d323dc2	0.043515928
2	0xbe0e8877	-0.13919245
3	0xbcd45613	-0.02591995
4	0xbe99023b	-0.29884514
5	0x3a388336	0.0007038595
6	0xbec27c25	-0.3798534
7	0x3e99bd3b	0.30027184
8	0x3eb9057f	0.36137006
9	0xbe6e7871	-0.23288132
10	0x3dfa03f7	0.122077875
11	0x3eaeaeaa	0.34117633
12	0x3e36cdde	0.1785197
13	0x3ea9d6ba	0.33171636
14	0x3ead36c0	0.33830833
15	0x3ed2b668	0.4115479
16	0x3ea397a2	0.31951624
17	0x3e375058	0.17901742
18	0xbe9d5205	-0.30726638
19	0x3e71548f	0.23567413
20	0x3e6d9cce	0.23204347
21	0x3dc4d218	0.09610385
22	0x3ea60463	0.32425222
23	0xbe864054	-0.26220953
24	0x3e560591	0.20900561
25	0xbeb3865d	-0.3506345
26	0x3d939ee5	0.07208041
27	0x3e9caaae	0.30598968
28	0x3dae9736	0.08524935
29	0x3d110f77	0.03541514
30	0xbdb5ae75	-0.08871166
31	0x3e928555	0.2861735
32	0x3e9fd436	0.31216592
33	0xbe2d8bf8	-0.16947925
34	0xbe25fda0	-0.16210032
35	0x3e74b5a7	0.2389742
36	0xbe92f00f	-0.28698775
37	0x3d6ed700	0.05831051
38	0xbe32d314	-0.17463332
39	0x3e484d30	0.19560695
40	0xbd92ee75	-0.07174388
41	0x3d86f16d	0.06589017
42	0xbe507a1c	-0.20359081
43	0x3e97647a	0.29568845
44	0xba38bf44	-0.0007047544
45	0xbd3e6516	-0.04648312
46	0xbd3d0fdb	-0.0461577
47	0x3eb4df3a	0.35326558
48	0x3d047a21	0.032343034
49	0xbed8515a	-0.42249566
50	0xbe57b93c	-0.21066755
51	0xbe8f21c8	-0.2795546
52	0x3e790085	0.24316604
53	0x3e520013	0.20507841
54	0x3e94e6f6	0.2908246
55	0xbe3057a8	-0.17220938
56	0xbe6d6b9e	-0.23185584
57	0x3e95d910	0.29267168
58	0x3e4b9449	0.19880785
59	0x3e064c0a	0.13114944
60	0xbe80faf4	-0.25191462
61	0x3ea1c3c5	0.31594673
62	0x3c7bd2d5	0.0153700905
63	0x3eab02a2	0.33400446

conv1.lin.weight f4 [64, 7]
0	0xbde48b82	-0.111594215
1	0xbe7bf229	-0.24604096
2	0x3ea08f59	0.31359366
3	0x3dae6838	0.08515972
4	0xbc85533c	-0.01627504
5	0x3e731c33	0.23741226
6	0xbe43703f	-0.19085787
7	0xbdd26b30	-0.10274351
8	0x3e0cd510	0.13753152
9	0x3e3c51c7	0.1839057
10	0xbe1ea297	-0.1549171
11	0xbd434959	-0.04767737
12	0x3e885988	0.26630807
13	0x3d073663	0.03301085
14	0xbdf49f87	-0.1194449
15	0xbe9228e9	-0.28546837
16	0xbe7fbac7	-0.24973594
17	0xbc981265	-0.018563459
18	0xba8588c0	-0.0010187849
19	0x3c7ce994	0.015436549
20	0xbe0c10bd	-0.1367826
21	0x3e357ca4	0.17723328
22	0xbe9828a1	-0.29718497
23	0x3d8e95c5	0.0696216
24	0xbe94aa93	-0.29036388
25	0x3e983012	0.29724175
26	0xbd92be0d	-0.071651556
27	0xbdc7396c	-0.09727749
28	0xbd01e3db	-0.03171144
29	0xbdda9c7f	-0.106743805
30	0xbe9e96d0	-0.30974436
31	0x3d569feb	0.052398603
32	0xbd0ecc06	-0.03486254
33	0x3c6a7d05	0.014312034
34	0x3e0f6cbf	0.14006327
35	0xbd43d34c	-0.04780893
36	0x3c3d8bf1	0.011569009
37	0xbe41f5c3	-0.18941407
38	0x3ea46e03	0.32115182
39	0xbe443f03	-0.19164662
40	0x3e12dacf	0.14341281
41	0xbcb49a1b	-0.02204614
42	0x3d5121e3	0.051057708
43	0xbd71fe69	-0.059080515
44	0xbe9ddac6	-0.30830973
45	0x3c77391c	0.0150892995
46	0xbd998513	-0.07496085
47	0x3d4ee945	0.050515432
48	0x3d3c2ac7	0.045939233
49	0xbe3b4e01	-0.18291475
50	0xbdd65484	-0.10465339
51	0x3d045ffa	0.032318093
52	0xbe7b177a	-0.24520674
53	0x3dcf8ab2	0.10133876
54	0xbe22fad2	-0.15915993
55	0xbdd2d82a	-0.10295136
56	0xbe0b4d2a	-0.13603655
57	0x3e0ea6dd	0.13930841
58	0x3e2d856c	0.16945428
59	0x3cf80ed3	0.030280506
60	0xbcaf613a	-0.021408666
61	0xbe159106	-0.14606103
62	0x3e9e8ce5	0.3096687
63	0xbddb783e	-0.10716294
64	0xbe7cb6a8	-0.24679053
65	0xbe8e914f	-0.27845237
66	0xbc1e79d9	-0.009672605
67	0x3e59b364	0.21259838
68	0x3d9d2aa9	0.076741524
69	0x3e087f52	0.13329819
70	0x3e46b4db	0.19404928
71	0xbdbaffa4	-0.09130791
72	0xbea93090	-0.33044863
73	0x3e181544	0.14851862
74	0x3e869248	0.2628348
75	0xbe2925d3	-0.16518335
76	0xbe36c7ef	-0.17849706
77	0xbe0d7c1d	-0.13816877
78	0x3e76a309	0.2408563
79	0x3e6de7ea	0.23233
80	0xbce12684	-0.027484186
81	0x3d1a983d	0.037742842
82	0xbe5386ca	-0.20656887
83	0x3e4a0124	0.19726998
84	0x3da3fa1e	0.080066904
85	0xbe429075	-0.19000418
86	0x3e72c71e	0.2370877
87	0xbc7061a5	-0.014671718
88	0xbd44d7a5	-0.048057217
89	0xbd9d8e79	-0.0769319
90	0xbd813ce2	-0.063104406
91	0xbd858ceb	-0.065210186
92	0x3e1c8bee	0.15287754
93	0x3e3d38c3	0.18478684
94	0x3e913470	0.2836032
95	0x3e38a999	0.18033446
96	0xbdb9ce84	-0.09072593
97	0xbe0a4874	-0.13504201
98	0xbd52c167	-0.051453974
99	0xbe8b139f	-0.27163407
100	0x3e35d040	0.17755222
101	0xbc9720d3	-0.018448269
102	0x3d4f12dc	0.050555095
103	0x3e173566	0.14766464
104	0x3d8ffa46	0.07030158
105	0xbe88dde5	-0.26731792
106	0xbdfed257	-0.12442463
107	0x3e46d9b2	0.19418982
108	0x3e8d39f3	0.27583274
109	0x3de1dcaa	0.110284165
110	0x3e5e0f51	0.2168553
111	0xbe0ba27c	-0.13636202
112	0xbe1bc157	-0.15210472
113	0xbdad57d7	-0.0846402
114	0x3e8b99ce	0.2726578
115	0xbe25d5be	-0.16194817
116	0x3e4b9779	0.19882001
117	0xbe3ed8ab	-0.1863734
118	0x3eab5418	0.33462596
119	0x3bc4c395	0.0060047605
120	0xbe0aa251	-0.13538481
121	0xbe744de5	-0.2385784
122	0x3e34655a	0.17616788
123	0xbdf304dc	-0.11866161
124	0x3e4fff39	0.20312203
125	0x3e82e3b9	0.25564364
126	0xbd92ef3a	-0.07174535
127	0xbd8d0e99	-0.0688755
128	0xbe9246e6	-0.28569716
129	0x3d998812	0.074966565
130	0x3d9cc12f	0.07654034
131	0x3bbd729a	0.005781484
132	0x3da8c63d	0.08240936
133	0x3e3e854c	0.18605536
134	0x3de3df7e	0.11126612
135	0xbd37eb9f	-0.04490244
136	0xbdf122ef	-0.11774241
137	0xbd82bf0e	-0.06384097
138	0x3e231eae	0.15929672
139	0xbe00052e	-0.12501976
140	0x3e6b9657	0.23006569
141	0xbd15f283	-0.03660823
142	0x3e1066a2	0.14101651
143	0xbce27fbc	-0.0276488
144	0xbe1d4e27	-0.15361844
145	0xbdc0109d	-0.09378169
146	0xbdbfbe28	-0.09362441
147	0xbdf40fbc	-0.119170636
148	0x3e4747b1	0.19460942
149	0x3e99df59	0.30053213
150	0xbd68ff34	-0.056884006
151	0xbe281028	-0.16412413
152	0xbcb6ddc9	-0.022322552
153	0xbe362ada	-0.17789784
154	0x3dc3ae43	0.09554722
155	0x3d93867b	0.072033845
156	0xbdaa4f51	-0.0831591
157	0x3d9f1a7e	0.07768725
158	0x3d7bc363	0.061465632
159	0xbd3dc77a	-0.046332814
160	0x3e9353da	0.2877491
161	0xbe00fb97	-0.12595974
162	0xbcce906c	-0.02521535
163	0xbe90e861	-0.2830229
164	0x3c6dc05b	0.014511193
165	0x3db7aed9	0.089688964
166	0x3c0c997c	0.008581515
167	0x3db41d47	0.08794647
168	0xbe1acc61	-0.15117027
169	0xbd8f7419	-0.07004566
170	0x3e3684cb	0.17824094
171	0x3e8724a3	0.2639514
172	0xbdbd3f22	-0.09240557
173	0xbd047c03	-0.03234483
174	0xbe151201	-0.14557649
175	0xbea74444	-0.3266927
176	0x3d736b22	0.05942834
177	0xbe3b19cf	-0.18271564
178	0xbeace94c	-0.3377174
179	0x3e910c35	0.28329626
180	0xbe5bb227	-0.21454678
181	0xbac43be9	-0.0014971468
182	0xbe0d3eac	-0.13793439
183	0x3d8bc92d	0.068254806
184	0xbc25b2ea	-0.010113457
185	0x3e2f02a7	0.17090856
186	0x3ccb5237	0.024819477
187	0xbd00e033	-0.031463813
188	0x395d4a7f	0.00021103954
189	0xbc0c0323	-0.00854567
190	0xbec2a126	-0.38013572
191	0x3d8a3d99	0.0675003
192	0x3d58b502	0.052906998
193	0xbe1c5b1b	-0.15269129
194	0xbe7918d8	-0.24325883
195	0x3e29073c	0.16506666
196	0x3c205d23	0.0097878305
197	0x3ce28c60	0.027654827
198	0x3dc3e42e	0.09565006
199	0x3d5eb04b	0.054367345
200	0xbe2addcc	-0.16686171
201	0x3eb110b7	0.34583065
202	0xbe890e1d	-0.2676858
203	0x3af6e4f0	0.0018836539
204	0xbdf486c9	-0.11939771
205	0x3d07795d	0.033074725
206	0xbb8130bc	-0.003942577
207	0x3e9606a0	0.2930193
208	0xbe2b7bcb	-0.16746442
209	0x3b25994c	0.0025268374
210	0xbcadc890	-0.0212138
211	0xbe11fd09	-0.14256682
212	0xbe39ba8d	-0.1813757
213	0xbd1294e9	-0.035786543
214	0xbd5dcd19	-0.054150674
215	0xbe68154a	-0.22664371
216	0x3dfb952b	0.12284311
217	0x3b529dbf	0.003213748
218	0xbe4d56de	-0.20052668
219	0x3e5ef09a	0.2177147
220	0x3e787bcd	0.24265976
221	0x3e249d6c	0.16075677
222	0xbe1ac6c5	-0.15114887
223	0xbde8750f	-0.11350452
224	0x3dd33a6b	0.10313877
225	0x3ddce516	0.10785882
226	0x3c3a3cf6	0.011367073
227	0x3db56817	0.08857744
228	0xbe613d58	-0.21996057
229	0x3e87879e	0.26470655
230	0xbdd0299f	-0.101641886
231	0xbe0cf30d	-0.13764592
232	0xbe405daa	-0.1878573
233	0xbe2fc247	-0.17163955
234	0x3dfeb30a	0.12436493
235	0x3df0c043	0.11755421
236	0x3e015004	0.1262818
237	0x3c04d52f	0.008107468
238	0x3d73dec9	0.059538636
239	0xbdac40fc	-0.08410832
240	0xbe4cdc26	-0.20005855
241	0xbe2ed1ba	-0.17072192
242	0x3e6efc7b	0.23338501
243	0x3dcbdd8a	0.099543646
244	0x3d13648a	0.035984553
245	0xbeadc9f7	-0.3394315
246	0x3e2be091	0.16784884
247	0x3e5d9fa6	0.21642932
248	0xbdbeccfd	-0.09316442
249	0x3e5174b8	0.20454681
250	0xbe09fbdb	-0.13474981
251	0x3e1f45be	0.15553948
252	0x3cb8cc70	0.02255842
253	0xbdc3811b	-0.09546109
254	0xbe8bb9ec	-0.27290285
255	0xbcf1db5a	-0.02952354

conv2.bias f4 [64]
0	0xbe91f48c	-0.28506887
1	0x3df5ef45	0.12008528
2	0xbdbf82b5	-0.09351102
3	0x3de164db	0.11005565
4	0x3e0918f1	0.1338842
5	0x3db56a91	0.088582166
6	0x3da56d88	0.08077532
7	0x3e158cbe	0.1460447
8	0x3d9ae5c9	0.07563359
9	0x3df437ec	0.11924729
10	0xb91f61a4	-0.00015199796
11	0x3e2f3100	0.17108536
12	0x3dbf6661	0.09345699
13	0x3e0f3b0d	0.1398737
14	0xbd0bc5f0	-0.034124315
15	0x3d4914c1	0.049092058
16	0x3e079878	0.13241756
17	0x3e37ea9a	0.17960587
18	0x3e22a6b2	0.15883902
19	0x3d2b5e68	0.04183808
20	0x3e0c1779	0.13680829
21	0x3e14e45f	0.14540242
22	0x3dc591f1	0.09646977
23	0x3e0e2468	0.13881075
24	0x3d52fa95	0.051508505
25	0xbd1f3054	-0.03886445
26	0x3e184a58	0.1487211
27	0x3df46a51	0.11934341
28	0x3dcb4f7c	0.0992727
29	0x3e1fb747	0.15597259
30	0x3e05f6e0	0.13082457
31	0xbe24f4f6	-0.1610907
32	0x3e00d83d	0.12582488
33	0xbe193d3b	-0.14964764
34	0xbe9eb0e2	-0.30994326
35	0xbbc48ec3	-0.005998464
36	0x3dae1d91	0.08501733
37	0x3e1ed73c	0.15511793
38	0xbdd930f8	-0.10605043
39	0x3df4fa57	0.11961811
40	0x3dbd4fe7	0.09243756
41	0x3df8c478	0.121468484
42	0x3e1318dc	0.14364952
43	0x3d077bca	0.03307704
44	0x3caa4cab	0.020788511
45	0x3e11d4c3	0.14241318
46	0xbd68761b	-0.05675326
47	0x3dfe123d	0.124058224
48	0xbe966df7	-0.29380772
49	0x3dc2c77e	0.09510706
50	0x3de020d8	0.109437644
51	0x3d9b1543	0.07572415
52	0x3de9ea56	0.11421649
53	0xbe28a309	-0.16468443
54	0x3e091867	0.13388215
55	0x3d91460c	0.070934385
56	0x3e003485	0.12520035
57	0x3e08b9bf	0.13352107
58	0x3e15ec82	0.14641002
59	0xbe15b7da	-0.14620915
60	0x3e31b2c3	0.17353348
61	0x3dba85ab	0.091075264
62	0x3e0f1831	0.13974072
63	0x3dcd9720	0.100385904

conv2.lin.weight f4 [64, 64]
0	0x3c9987b8	0.018741474
1	0xbde6aa4b	-0.112629496
2	0xbefa1375	-0.4884297
3	0x3c41e777	0.011834971
4	0xbe7f9f1c	-0.24963039
5	0xbd79ee04	-0.061018005
6	0xbe80f85f	-0.25189492
7	0x3dc525ca	0.09626348
8	0x3e562730	0.20913386
9	0x3cf1d5ed	0.029520953
10	0x3e2392a3	0.15973906
11	0x3da682da	0.08130427
12	0x3cd45bbd	0.02592265
13	0xbde330b9	-0.110932775
14	0x3e260ee6	0.16216621
15	0xbb5a0152	-0.0033264947
16	0x3e1ba863	0.15200953
17	0x3e748f81	0.23882867
18	0xbe410d1e	-0.1885266
19	0x3e220e44	0.15825754
20	0x3d15b484	0.036549106
21	0xbe3a8359	-0.18214168
22	0xbd35259f	-0.04422533
23	0xbb107a90	-0.002204571
24	0x3d23ef1f	0.040022966
25	0x3d904dfc	0.07046124
26	0xbdbffe94	-0.09374729
27	0x3e334766	0.17507705
28	0x3db66e72	0.089077845
29	0x3e63c749	0.2224399
30	0xbd9c64db	-0.07636424
31	0xbe1daf80	-0.15398979
32	0x3da80b07	0.08205228
33	0x3b8ed540	0.0043589175
34	0xbc237bc8	-0.009978242
35	0x3d8f0a3f	0.06984376
36	0xbe746895	-0.2386802
37	0x3c2e40ed	0.010635597
38	0x3e2d339c	0.16914219
39	0x3e531596	0.20613703
40	0xbe170fc5	-0.1475211
41	0xbdca4128	-0.09875709
42	0x3d8e7a88	0.06956965
43	0x3e9c89de	0.30573934
44	0x3e2337a6	0.15939197
45	0x3e059587	0.13045321
46	0xbdc3721e	-0.095432505
47	0x3e0360d6	0.12829909
48	0x3d219b37	0.039454665
49	0xbd842cf9	-0.0645389
50	0xbe52163a	-0.20516291
51	0xbe1c5ebe	-0.15270516
52	0x3e0e2a4c	0.13883322
53	0x3e40bb04	0.18821341
54	0x3d86bbc7	0.065787844
55	0xbe007307	-0.1254388
56	0xbd55edf2	-0.052228875
57	0x3d6119cb	0.05495624
58	0x3e8e54eb	0.27799162
59	0x3de7a1cf	0.113101594
60	0xbe698e13	-0.22808103
61	0xbded70db	-0.11593791
62	0xbe0de6d2	-0.13857582
63	0xbe0aaffe	-0.13543698
64	0x3de1b7b7	0.11021369
65	0xbd929b7e	-0.07158564
66	0x3d015817	0.03157815
67	0x3e22f0c6	0.1591216
68	0xbd4f46f2	-0.050604768
69	0xbd063a9d	-0.03277074
70	0xbe2b0e9b	-0.1670479
71	0xbda2326a	-0.07919772
72	0x3de26e37	0.11056178
73	0xbddd2bd6	-0.10799377
74	0xbdfe90f6	-0.12429993
75	0xba86afa2	-0.0010275731
76	0xbe360270	-0.17774367
77	0xbe39ba0b	-0.18137376
78	0x3e53e940	0.20694447
79	0xbd6b2b13	-0.057414126
80	0xbe44f070	-0.19232345
81	0x3e36298b	0.17789285
82	0x3e62571c	0.22103542
83	0xbe0ca990	-0.13736558
84	0xbc820b69	-0.015874581
85	0x3e3fabe6	0.18717918
86	0x3e33966e	0.17537853
87	0xbd78ff44	-0.060790315
88	0x3e1d7ab1	0.15378834
89	0xbe0e4ee7	-0.13897286
90	0x3e3d58cb	0.18490903
91	0xbe8da0b5	-0.27661672
92	0x3dcb9a58	0.09941548
93	0xbe17f6eb	-0.14840285
94	0xbdd466eb	-0.103711925
95	0x3d9ae52b	0.075632416
96	0x3d955b49	0.07292802
97	0xbdabda0e	-0.083912
98	0x3d9fc829	0.078018494
99	0x3e5b080c	0.21389788
100	0xbdc8ffae	-0.09814392
101	0xbd3f8582	-0.046758182
102	0x3deb09d2	0.114764825
103	0x3e1bfecc	0.15233916
104	0xbe282923	-0.16421942
105	0xbe2261c7	-0.15857612
106	0xbdb0a812	-0.08625807
107	0x3da298df	0.07939314
108	0x3e084295	0.13306649
109	0xbdb8eeea	-0.09029944
110	0x3e7258c9	0.23666681
111	0xbd0376a8	-0.03209558
112	0xbd55b6c5	-0.052176256
113	0x3e72760b	0.23677842
114	0x3e3f43e7	0.18678246
115	0x3e0364d8	0.12831438
116	0xbe3cea8b	-0.18448846
117	0xbe48d759	-0.19613399
118	0x3e01557d	0.12630267
119	0xbd442efb	-0.047896367
120	0x3e37b060	0.17938375
121	0x3df50ced	0.11965356
122	0x3d83ac9c	0.06429407
123	0x3e4fb7bc	0.20284933
124	0x3e1e4b7d	0.15458484
125	0x3e716969	0.23575367
126	0x3e5715fc	0.2100448
127	0x3e409900	0.18808365
128	0xbe334dd4	-0.17510158
129	0x3dc86272	0.09784402
130	0x3df61f9a	0.12017746
131	0x3dac13f7	0.084022455
132	0xbe01bb97	-0.12669216
133	0xbd7fe2e6	-0.062472247
134	0x3d04ee72	0.03245396
135	0x3de43244	0.111424
136	0xbd87ce11	-0.06631101
137	0xbe1c137a	-0.15241805
138	0xbd734d58	-0.059399933
139	0x3de583ef	0.11206805
140	0x3dde27d5	0.10847441
141	0xbcf7fd90	-0.030272275
142	0x3dcc9a8a	0.099904135
143	0xbe406eb4	-0.1879223
144	0x3dda6a9f	0.106648676
145	0x3e2a015a	0.16602078
146	0x3d88665f	0.06660151
147	0xbe08402d	-0.13305731
148	0x3d81f278	0.06345075
149	0x3c147b49	0.009062597
150	0xbe43ec92	-0.19133213
151	0xbd818a6f	-0.06325232
152	0xbe3f6d3b	-0.18694012
153	0x3c12efb8	0.008968286
154	0xbe5424c3	-0.20717148
155	0x3d476243	0.048677694
156	0x3c895167	0.016762448
157	0x3ddcddbd	0.10784481
158	0x3def7df7	0.11693948
159	0xbd92f4d4	-0.071756035
160	0xbde82dcc	-0.1133686
161	0xbde31a05	-0.11088947
162	0x3dbf32d8	0.093358696
163	0xbe495ed6	-0.19665083
164	0x3e8c2457	0.27371475
165	0xbd5232ab	-0.051317852
166	0x3d807687	0.06272607
167	0x3e2e74a9	0.1703669
168	0x3e1472d5	0.1449693
169	0xbdd5efe2	-0.10446145
170	0x3e2d142b	0.16902225
171	0x39f9dbf0	0.00047656847
172	0xbd22f97a	-0.0397887
173	0xbcdbc9e3	-0.026829666
174	0xbd5fecc7	-0.054669168
175	0xbe17c230	-0.1482017
176	0xbda8c254	-0.0824019
177	0x3e01b7a4	0.1266771
178	0x3c97523b	0.018471828
179	0x3e11bca2	0.14232114
180	0xbdf2322e	-0.11825977
181	0xbd6e1b45	-0.058131475
182	0x3e4aae80	0.19793129
183	0xbe0f8dde	-0.14018962
184	0x3ce96982	0.028492693
185	0x3bed3e61	0.007240102
186	0xbc86f09a	-0.01647215
187	0x3e4da9d9	0.20084323
188	0x3d96fc13	0.07372298
189	0x3e035e56	0.12828955
190	0xbdb7a64b	-0.08967265
191	0x3dd522c6	0.10407023
192	0xbdd41203	-0.10354998
193	0xbca2bbff	-0.019865034
194	0x3dae67c1	0.08515883
195	0x3e207966	0.1567131
196	0xbe11a1fb	-0.14221947
197	0x3d99c6aa	0.07508595
198	0xbdd174e9	-0.10227377
199	0x3d882ac2	0.066487804
200	0xbdaf501d	-0.08560202
201	0x3e1ddc6f	0.1541612
202	0xbda1c543	-0.07898953
203	0xbdbc1994	-0.09184566
204	0xbd85674a	-0.065138415
205	0xbe495572	-0.19661501
206	0x3c2eac74	0.010661233
207	0xbb7e7aab	-0.003883044
208	0x3e438001	0.19091798
209	0xbe09e751	-0.13467146
210	0x3e81db25	0.25362507
211	0x3e2dc379	0.16969098
212	0x3d68aaf8	0.056803674
213	0x3df5ea40	0.1200757
214	0x3e32c96e	0.17459652
215	0x3da806d4	0.08204427
216	0x3e507aeb	0.2035939
217	0xbe1aef40	-0.15130329
218	0x3c3c8e3c	0.011508521
219	0x3d94521f	0.07242226
220	0xbc8bd7a8	-0.017070606
221	0xbb822adb	-0.003972394
222	0xbe3da6ad	-0.18520613
223	0x3e157d5e	0.14598605
224	0x3dd1b72c	0.102400154
225	0xbd51cb93	-0.051219534
226	0x3c3aa523	0.011391911
227	0x3cabe9ff	0.020985601
228	0x3e9a6b42	0.30159956
229	0xbeb96207	-0.362076
230	0x3d87742a	0.066139534
231	0xbd418b9f	-0.047252294
232	0x3da4428b	0.080205046
233	0xbe3b4cb1	-0.18290974
234	0x3e446e85	0.19182785
235	0xbec0a460	-0.37625408
236	0x3c4ceb6c	0.012507301
237	0x3e0962ab	0.13416545
238	0xbe06d155	-0.13165791
239	0x3cf70bde	0.030157026
240	0x3cf31324	0.029672213
241	0xbd964b35	-0.07338563
242	0x3d9a94f8	0.07547945
243	0xbda63d4b	-0.081171595
244	0xbe616c0f	-0.22013877
245	0xbc192842	-0.009347977
246	0x3c7b34d5	0.01533242
247	0xbd50d84c	-0.050987527
248	0x3dec834a	0.11548479
249	0xbe33eaae	-0.17569992
250	0xbdbd2fef	-0.09237658
251	0xbde5e080	-0.112244606
252	0x3dc0ffdb	0.094238006
253	0xbd8d7624	-0.06907299
254	0x3c46355a	0.012097681
255	0x3cc71fc3	0.024307137

bn1.weight f4 [64]
0	0x3f803466	1.0015991
1	0x3f6fba80	0.9364395
2	0x3f86c553	1.0528969
3	0x3f86e082	1.0537264
4	0x3f8538d9	1.0407974
5	0x3f69494a	0.91127455
6	0x3f97872a	1.1838124
7	0x3f99af93	1.2006706
8	0x3f6697e6	0.9007553
9	0x3f831948	1.024209
10	0x3f82d594	1.0221429
11	0x3f77891a	0.96693575
12	0x3f813987	1.0095681
13	0x3f7982eb	0.9746539
14	0x3f7a8b3a	0.9786869
15	0x3f740af3	0.9532921
16	0x3f7ab3c3	0.97930545
17	0x3f77d83c	0.9681432
18	0x3f87640d	1.0577408
19	0x3f871136	1.0552127
20	0x3f8ccc66	1.0999877
21	0x3f8a75f9	1.0817252
22	0x3f6e45b7	0.93075126
23	0x3f8b521a	1.088443
24	0x3f93b341	1.1539079
25	0x3f847033	1.034674
26	0x3f749194	0.95534635
27	0x3f9888e3	1.1916775
28	0x3f7d76cd	0.990094
29	0x3f7d04f6	0.98835695
30	0x3f99cafc	1.2015071
31	0x3f7ae965	0.9801238
32	0x3f791995	0.9730466
33	0x3f80b9cd	1.0056702
34	0x3f7487c8	0.95519686
35	0x3f791b3a	0.9730717
36	0x3f906389	1.1280376
37	0x3f92d027	1.1469773
38	0x3f6f8709	0.9356542
39	0x3f764ccd	0.9621094
40	0x3f765f53	0.96239203
41	0x3f76c086	0.9638752
42	0x3f7e6be0	0.99383354
43	0x3f93e06f	1.1552867
44	0x3f7105c4	0.9414942
45	0x3f8bb704	1.0915227
46	0x3f75bd2c	0.9599178
47	0x3f762cb2	0.9616195
48	0x3f84bc48	1.0369959
49	0x3f99adc4	1.2006154
50	0x3f8316c9	1.0241328
51	0x3f831caa	1.0243123
52	0x3f8d88ea	1.1057408
53	0x3f98f5ce	1.1950014
54	0x3f89c679	1.0763694
55	0x3f8249d4	1.017878
56	0x3f884d08	1.0648508
57	0x3f8296c3	1.0202259
58	0x3f9a0ebf	1.203575
59	0x3f716987	0.94301647
60	0x3f866680	1.050003
61	0x3f732beb	0.9498889
62	0x3f80946b	1.0045294
63	0x3f76a3ea	0.96343863

bn1.bias f4 [64]
0	0x3deb16b7	0.11478942
1	0x3df27a9e	0.118397936
2	0x3e92784d	0.28607407
3	0x3e647cce	0.22313234
4	0x3e833805	0.25628677
5	0xbcd8ff05	-0.02648879
6	0x3e87774b	0.264582
7	0xbe41b4f3	-0.18916683
8	0x3e554751	0.20827986
9	0x3e8050b2	0.25061566
10	0x3df2ccf8	0.11855501
11	0x3e590dec	0.21196717
12	0x3e535f3f	0.20641802
13	0x3e67c740	0.22634602
14	0x3e54f3fb	0.20796196
15	0x3e5b7ac5	0.21433552
16	0x3e501d5f	0.20323704
17	0x3ded485e	0.115860686
18	0x3e6279d4	0.22116786
19	0xbbe7a5fd	-0.007069348
20	0xbe2fd4b7	-0.17170988
21	0x3e561a91	0.20908572
22	0x3e67ad83	0.22624783
23	0x3e8ab7f7	0.2709348
24	0x3e6dffbc	0.23242086
25	0x3e9f07f6	0.3106076
26	0x3e3019a1	0.17197277
27	0xbe811a3e	-0.25215334
28	0xbe7c0245	-0.24610241
29	0x3dddc3d2	0.108283654
30	0x3e76fb7e	0.24119374
31	0x3e2ddc3a	0.16978541
32	0x3e13f17f	0.14447592
33	0x3e72a701	0.2369652
34	0x3e460b10	0.19340158
35	0x3e27d43f	0.16389559
36	0x3e7f9a49	0.24961199
37	0xbe9496b9	-0.29021242
38	0x3e0c8fbb	0.13726704
39	0x3e47246c	0.19447488
40	0x3e34e871	0.17666794
41	0x3e70eb49	0.23527254
42	0x3e73a11c	0.23791927
43	0xbe60b145	-0.21942623
44	0x3e59513c	0.21222395
45	0xbe8524e7	-0.26004717
46	0x3e820b69	0.2539933
47	0x3e3765fd	0.17909999
48	0x3e8307f6	0.2559201
49	0x3e83bc8b	0.25729784
50	0x3e7c7bb3	0.24656563
51	0x3e7636fb	0.24044411
52	0xbeb8f8c3	-0.3612729
53	0xbe38e668	-0.18056643
54	0xbe7d5584	-0.24739653
55	0x3e6e7466	0.2328659
56	0x3e0927ce	0.1339409
57	0xbe01f024	-0.12689263
58	0xbeaf9eef	-0.34300944
59	0x3e2afaba	0.16697207
60	0x3e6c9cdc	0.23106712
61	0x3e3141e4	0.17310292
62	0x3e5589fc	0.20853418
63	0x3e878931	0.26471856

bn1.running_mean f4 [64]
0	0x3fe076be	1.7536237
1	0x40346cb7	2.8191354
2	0x3a470193	0.0007591482
3	0x3ef293f3	0.473785
4	0x3e9c7820	0.30560398
5	0x3f96f7d9	1.1794387
6	0x3d6cdd57	0.057828274
7	0x3e13cab6	0.14432797
8	0x4066a889	3.6040366
9	0x3f8a254a	1.079263
10	0x3ec5ea56	0.38655347
11	0x403429cf	2.8150518
12	0x3e8c4c51	0.27401975
13	0x40422267	3.0333498
14	0x40193826	2.394052
15	0x4051fb90	3.2809792
16	0x40662c9a	3.5964723
17	0x4051e08f	3.279331
18	0x3ec7f2cb	0.39052424
19	0x3f3303ac	0.6992748
20	0x3e62f373	0.22163181
21	0x3e8b69ba	0.272291
22	0x408ade40	4.33963
23	0x3ead02c4	0.33791173
24	0x3efa6e56	0.48912305
25	0x3e121394	0.14265281
26	0x3f6eb537	0.9324526
27	0x3ebf2d11	0.3733907
28	0x3f9f4a05	1.2444464
29	0x3f81706e	1.0112436
30	0x3d84d773	0.06486406
31	0x3fae8733	1.363501
32	0x3ff1ef3f	1.8901137
33	0x3f5f5d9c	0.8725221
34	0x3f82565f	1.0182608
35	0x40296533	2.6468017
36	0x3ea0636a	0.31325847
37	0x3cc04e3e	0.023474809
38	0x40300161	2.7500842
39	0x4005b78b	2.0893276
40	0x40ab5a9d	5.354811
41	0x3f6ecac1	0.9327813
42	0x3e10abac	0.14127988
43	0x3e1eb23d	0.1549768
44	0x405f8078	3.492216
45	0x3e43b972	0.1911371
46	0x40943a8b	4.6321464
47	0x407ff974	3.9996004
48	0x3eeb2d9b	0.45933232
49	0x3e866aec	0.2625345
50	0x3ed32db0	0.41245794
51	0x3f192b00	0.5983124
52	0x3efe6667	0.49687502
53	0x3e6712e2	0.22565797
54	0x3ecd4a41	0.40095714
55	0x3f336f13	0.7009136
56	0x3f4e9d5e	0.80708873
57	0x3eed5fce	0.46362156
58	0x3e70b732	0.23507383
59	0x408dc133	4.429834
60	0x3ebb4de7	0.36582872
61	0x406d35d0	3.7064095
62	0x3fb8992f	1.4421748
63	0x40e145fa	7.039792

bn1.running_var f4 [64]
0	0x42174f53	37.827465
1	0x42b6657c	91.19821
2	0x3a1e5963	0.00060405413
3	0x41616874	14.088001
4	0x3fdc0d28	1.7191515
5	0x41f6ad33	30.83457
6	0x3df96ae4	0.12178591
7	0x3d945739	0.07243199
8	0x42f915c8	124.54254
9	0x41730f3f	15.191222
10	0x4085c141	4.1798406
11	0x42a666c0	83.20068
12	0x4048c54f	3.1370428
13	0x42da6845	109.20365
14	0x423ffbfd	47.996082
15	0x42cd4dab	102.651695
16	0x43113734	145.21564
17	0x42c888d7	100.267265
18	0x4042d68b	3.0443447
19	0x40ef2989	7.47382
20	0x3f63726b	0.8884646
21	0x403877d5	2.882314
22	0x43260d19	166.05116
23	0x4004816b	2.070399
24	0x4090c0b0	4.5235214
25	0x3fc02ed7	1.5014294
26	0x41493e14	12.577656
27	0x401c5fcc	2.443347
28	0x42027ef0	32.623962
29	0x41ad4380	21.657959
30	0x3e71af79	0.23602094
31	0x41cf08d7	25.879316
32	0x423e7de8	47.622955
33	0x4128f11c	10.558865
34	0x418f6891	17.926058
35	0x4298fb87	76.491264
36	0x3fc805a4	1.5626721
37	0x3bc32271	0.0059550335
38	0x42b26770	89.20203
39	0x4248ca74	50.19771
40	0x43923355	292.40103
41	0x411afd24	9.686802
42	0x3f9c6bae	1.2220361
43	0x3d63163b	0.055441123
44	0x42f88f72	124.28017
45	0x3f8a759c	1.0817142
46	0x4343cf26	195.80917
47	0x431da5b7	157.64732
48	0x4112ec92	9.182756
49	0x3ff6d625	1.9284102
50	0x4044ff4f	3.0780828
51	0x40d2bb54	6.585367
52	0x40a78ca1	5.2359166
53	0x3fa5455a	1.291179
54	0x4028d5fd	2.6380608
55	0x4158c122	13.547152
56	0x41640a22	14.252474
57	0x4060e548	3.5139942
58	0x3fd6eee9	1.679166
59	0x435da4d3	221.64384
60	0x402ef0ed	2.733455
61	0x430ae3b4	138.88947
62	0x41bf829f	23.93878
63	0x43da716e	436.88617

bn2.weight f4 [64]
0	0x3f9812fc	1.1880794
1	0x3f805339	1.0025398
2	0x3f83f9c1	1.0310594
3	0x3f7dcbb6	0.99138963
4	0x3f818a74	1.0120378
5	0x3f8149ca	1.0100644
6	0x3f8100ea	1.0078404
7	0x3f7bfc07	0.9843144
8	0x3f80495a	1.0022385
9	0x3f7d604a	0.9897505
10	0x3f975231	1.1821958
11	0x3f841c85	1.0321203
12	0x3f821ede	1.016567
13	0x3f7cf509	0.98811394
14	0x3f998030	1.1992245
15	0x3f800cf0	1.0003948
16	0x3f847fd4	1.035151
17	0x3f863777	1.0485677
18	0x3f80b2d1	1.005457
19	0x3f74a519	0.9556442
20	0x3f8258dd	1.0183369
21	0x3f8365ae	1.0265405
22	0x3f9c5cc8	1.2215815
23	0x3f8367c4	1.0266042
24	0x3f85e383	1.0460056
25	0x3f8a3dae	1.0800073
26	0x3f7ec678	0.9952159
27	0x3f7d990b	0.9906165
28	0x3f839926	1.0281112
29	0x3f81c48b	1.0138105
30	0x3f803523	1.0016216
31	0x3f9def96	1.2338741
32	0x3f7e1afc	0.99259925
33	0x3f8b841e	1.0899694
34	0x3f99afaa	1.2006733
35	0x3f847dc1	1.0350877
36	0x3f7d28c3	0.9889032
37	0x3f8766b4	1.0578218
38	0x3f9cfbcd	1.2264344
39	0x3f853964	1.0408139
40	0x3f822e1d	1.0170323
41	0x3f81c0c7	1.0136956
42	0x3f7d5690	0.9896021
43	0x3f98d7aa	1.1940815
44	0x3f8210d0	1.0161381
45	0x3f7e9404	0.99444604
46	0x3f8df579	1.1090537
47	0x3f849957	1.0359296
48	0x3f9e8728	1.2384996
49	0x3f871ade	1.0555074
50	0x3f8399a0	1.0281258
51	0x3f82fe86	1.0233924
52	0x3f7eb9fd	0.99502546
53	0x3f92f36b	1.1480535
54	0x3f80cd91	1.0062734
55	0x3f7fcb4c	0.9991958
56	0x3f7e2fd7	0.9929175
57	0x3f821745	1.0163351
58	0x3f811949	1.0085841
59	0x3f87ef9c	1.0619998
60	0x3f863088	1.048356
61	0x3f7bb5fb	0.98324555
62	0x3f81878d	1.0119492
63	0x3f7d05fc	0.98837256

bn2.bias f4 [64]
0	0xbe8cd5c1	-0.2750683
1	0x3e020023	0.12695365
2	0x3e58fefc	0.21191019
3	0x3e0db12a	0.13837114
4	0x3e504f7e	0.20342824
5	0x3e6ea473	0.2330492
6	0x3e6a4aa9	0.22880043
7	0x3e39381d	0.18087812
8	0x3e32f329	0.1747557
9	0x3e2be7c3	0.16787629
10	0xbe84d83c	-0.25946224
11	0x3e75dc2a	0.24009767
12	0x3e61c947	0.22049437
13	0x3e282d14	0.16423446
14	0xbe8b1588	-0.27164865
15	0x3e61c97e	0.2204952
16	0x3e7823e9	0.24232449
17	0x3e7c036a	0.24610677
18	0x3e4ad596	0.19808039
19	0x3e07bc68	0.13255465
20	0x3e7cbeb5	0.24682124
21	0x3e7e214e	0.24817392
22	0xbe8c11d1	-0.27357343
23	0x3e5cf447	0.2157756
24	0x3e7d5ab4	0.24741632
25	0xbbe35f32	-0.0069388384
26	0x3e6f688a	0.23379722
27	0x3e48e4d1	0.19618537
28	0x3e0e8d7b	0.13921158
29	0x3e639bc7	0.22227393
30	0x3de0e862	0.109818235
31	0xbe7f5596	-0.24934992
32	0x3e41dcfb	0.18931954
33	0xbd8bd972	-0.06828584
34	0xbe4418d9	-0.19150104
35	0x3e794084	0.24341017
36	0x3e3412bc	0.17585272
37	0x3e7ef4dc	0.24898094
38	0xbe85e4b4	-0.2615105
39	0x3e817ebf	0.25292012
40	0x3e6262b5	0.22107966
41	0x3e27cba5	0.16386278
42	0x3e5d3453	0.21601991
43	0xbe824fab	-0.25451407
44	0x3e1b7096	0.15179667
45	0x3e6ed476	0.23323235
46	0xbca437f8	-0.02004622
47	0x3e8459c9	0.2584975
48	0xbe4efc96	-0.20213541
49	0x3e833dac	0.2563299
50	0x3e64e771	0.22353913
51	0x3da7c8e9	0.081926174
52	0x3e1e4da9	0.15459312
53	0xbe0406cd	-0.1289322
54	0x3e3bef10	0.18352914
55	0x3e71a78c	0.2359907
56	0x3e48d969	0.19614185
57	0x3e63c0ad	0.22241469
58	0x3e6b4467	0.22975312
59	0xbccfe50b	-0.02537777
60	0x3e8043c7	0.2505171
61	0x3e43782a	0.19088808
62	0x3e73e581	0.23818018
63	0x3e5dc865	0.21658476

bn2.running_mean f4 [64]
0	0x3e026dec	0.12737244
1	0x3f3ba878	0.7330394
2	0x3e5f92bd	0.2183332
3	0x3f2451b7	0.64187187
4	0x3f7d7189	0.99001366
5	0x3f4b3b28	0.7938714
6	0x3f71f9a2	0.94521534
7	0x3f850692	1.039263
8	0x3ef3d5eb	0.47624144
9	0x3f17393b	0.590717
10	0x3ec93ddc	0.39305007
11	0x3f9df398	1.2339964
12	0x3f1fa9d1	0.62368494
13	0x3f4e9aa6	0.80704725
14	0x3e99e025	0.3005382
15	0x3f414ac5	0.75504714
16	0x3f77b579	0.9676128
17	0x3f87a971	1.0598584
18	0x3f805271	1.0025159
19	0x3ee51aaa	0.44746906
20	0x3f6272d9	0.88456494
21	0x3f51a436	0.8189119
22	0x3f0d116d	0.55104715
23	0x3f74371f	0.9539661
24	0x3f406cb5	0.75165874
25	0x3ea8db8f	0.3298001
26	0x3f5f14a2	0.8714086
27	0x3f41a31a	0.756395
28	0x3f001f11	0.50047404
29	0x3f2443b7	0.64165825
30	0x3f031f77	0.51219887
31	0x3d0026e1	0.031287078
32	0x3f2d4c8d	0.6769493
33	0x3e266244	0.16248423
34	0x3dcd7462	0.10031964
35	0x3f02b9da	0.51064837
36	0x3ea89eb3	0.32933578
37	0x3f1c743e	0.6111487
38	0x3dc7573a	0.09733434
39	0x3f95994b	1.1687406
40	0x3f432235	0.7622407
41	0x3f2b89b0	0.6700697
42	0x3f2d77e2	0.6776105
43	0x3ed8a042	0.42309767
44	0x3f2e417b	0.68068665
45	0x3f7968be	0.9742545
46	0x3de0686d	0.10957418
47	0x3f4457e6	0.7669662
48	0x3db380af	0.08764779
49	0x3f8a4738	1.0802984
50	0x3f534389	0.82524925
51	0x3e6495eb	0.22322814
52	0x3f30f49a	0.6912323
53	0x3d742a32	0.059610553
54	0x3f4121f5	0.7544244
55	0x3f34f8bf	0.70692056
56	0x3f1f705b	0.62280816
57	0x3f56d551	0.83919245
58	0x3f9b96ba	1.2155373
59	0x3e61b744	0.22042567
60	0x3f915800	1.135498
61	0x3f0df5a6	0.55452955
62	0x3f50644e	0.8140305
63	0x3f0a225c	0.5395868

bn2.running_var f4 [64]
0	0x3f8689af	1.0510768
1	0x4086475b	4.1962104
2	0x3f4991ba	0.78737986
3	0x3fb65f2e	1.4247797
4	0x401b9b37	2.4313486
5	0x4001a561	2.025719
6	0x3ff5fabf	1.9217147
7	0x4042de1f	3.0448072
8	0x3fc6e922	1.5539896
9	0x4015e7bc	2.342269
10	0x3e02d3e5	0.12776144
11	0x4022da60	2.5445786
12	0x3fc45367	1.5337952
13	0x4025d144	2.5908976
14	0x3d95c920	0.07313752
15	0x400a5579	2.1614668
16	0x4056b095	3.3545277
17	0x40060007	2.0937517
18	0x402220c1	2.5332491
19	0x3f5b1667	0.8558106
20	0x401299cc	2.290637
21	0x3f78cd6e	0.9718846
22	0x3e2eb265	0.1706024
23	0x401c09ce	2.4380984
24	0x3f4e8e7c	0.80686164
25	0x3fb84d49	1.4398586
26	0x3fc291a1	1.5200692
27	0x3fdc2a23	1.7200359
28	0x3f8c190d	1.0945145
29	0x3fcd5d8b	1.6044172
30	0x40487695	3.1322377
31	0x3bfd447d	0.0077291117
32	0x3f8cd766	1.1003234
33	0x3f8919f5	1.0711046
34	0x3f3d798c	0.7401359
35	0x3fe6ac1d	1.8021275
36	0x3f777e11	0.9667674
37	0x3f841831	1.0319883
38	0x3d12b949	0.035821233
39	0x401c99a1	2.4468768
40	0x3f834499	1.0255309
41	0x3faf123c	1.367744
42	0x3f8d22fd	1.1026303
43	0x3de62207	0.11236959
44	0x40006aad	2.006511
45	0x3fd984f4	1.6993699
46	0x3ef53071	0.4788852
47	0x4006576a	2.0990853
48	0x3f2bed39	0.6715885
49	0x3fc7b95d	1.5603443
50	0x400e2299	2.2208617
51	0x3f4f5c7e	0.81000507
52	0x3fd5fdc5	1.6718069
53	0x3e97fadd	0.2968358
54	0x401eee00	2.4832764
55	0x3f845c7e	1.0340726
56	0x3fe8435d	1.8145558
57	0x3ff12dcd	1.8842102
58	0x4048dfce	3.13866
59	0x3fb5fe92	1.4218314
60	0x3ff0a225	1.8799483
61	0x3f8ccc6b	1.0999883
62	0x4008d067	2.1377199
63	0x3f9fee9f	1.2494696

fc1.weight f4 [64, 135]
0	0x3c891d00	0.016737461
1	0x3d072d5d	0.033002246
2	0xbcbfaf11	-0.023398908
3	0xbc4a3873	-0.01234256
4	0x3e0de99a	0.13858643
5	0x3da7a346	0.08185439
6	0x3db978b2	0.09056224
7	0x3dbfd389	0.09366519
8	0xbda7606c	-0.08172688
9	0x3d987bdb	0.074454986
10	0x3e091aec	0.13389176
11	0x3ce3d520	0.027811587
12	0x3d06f04c	0.03294401
13	0x3e4c3f78	0.19946086
14	0x3d475f76	0.048675023
15	0xbc7923ef	-0.015206321
16	0x3d227f3b	0.039672118
17	0xbd9498ee	-0.072557315
18	0xbce50587	-0.027956737
19	0x3e18a035	0.14904864
20	0xbd1fe362	-0.03903521
21	0xbce44634	-0.027865507
22	0xbc814402	-0.015779499
23	0x3d3e39f3	0.046441983
24	0x3d310b0c	0.043223426
25	0x3e0da70c	0.13833255
26	0xbd5387da	-0.05164323
27	0x3d04f75e	0.03246247
28	0x3d897a7a	0.06712814
29	0x3ce113a7	0.027475191
30	0x3df82224	0.12115887
31	0x3daf4ab7	0.085591726
32	0x3e32a31f	0.17445038
33	0x3dacfc2e	0.08446537
34	0xbdc80e6f	-0.09768378
35	0xbd141a2f	-0.036157783
36	0x3ced3eae	0.028960552
37	0x3e31146c	0.17292947
38	0xbc42de5b	-0.011893834
39	0xbbdbe495	-0.0067105987
40	0x3df3f17d	0.119112946
41	0x3cb09198	0.0215538
42	0x3b53bcfe	0.0032308693
43	0x3beace22	0.007165686
44	0xbd3b4988	-0.04572442
45	0x3da166fd	0.078809716
46	0xbd2ae049	-0.0417178
47	0x3c55656e	0.013024671
48	0x3ddb798a	0.10716541
49	0x3e019e4e	0.12658045
50	0xbe69ce13	-0.22832517
51	0x3b0396e6	0.0020078956
52	0xbdb8d42a	-0.09024842
53	0xbcf1f6cc	-0.029536627
54	0x3d848c65	0.06472091
55	0x3dd82f71	0.10555924
56	0x3dd78408	0.1052323
57	0x3ae9e29d	0.0017844025
58	0x3d1cec6b	0.038311403
59	0xbd06ab50	-0.03287822
60	0xbdc21d0d	-0.09478197
61	0x3ceaeadb	0.028676441
62	0x3e3d4b19	0.18485679
63	0xbb8c1709	-0.004275207
64	0xbded1103	-0.1157551
65	0xbe534409	-0.20631422
66	0x3d510427	0.05102935
67	0x3d5ac097	0.053406324
68	0x3d6e5cdb	0.058194023
69	0x3d12e484	0.03586246
70	0x3d319f26	0.043364666
71	0xbd206bdf	-0.039165374
72	0xbd661f5d	-0.056182254
73	0x3d38a28d	0.045076896
74	0xbd4bdfc4	-0.049773946
75	0x3d0fbc53	0.03509171
76	0x3d794743	0.060858976
77	0xbcd48ae2	-0.02594513
78	0x3de07b05	0.10960964
79	0xbcac823a	-0.02105819
80	0x3da942e6	0.08264713
81	0xbe3e5ac4	-0.18589312
82	0x3e0167fa	0.1263732
83	0x3ddbea61	0.107380636
84	0xbd189c3b	-0.037258368
85	0xbde7a5cd	-0.11310921
86	0x3dc76ae0	0.09737182
87	0x3d93019e	0.07178043
88	0x3d2dae67	0.04240265
89	0x3d10cfac	0.0353543
90	0xbd0b5071	-0.03401226
91	0x3d2c28a8	0.04203096
92	0x3da0dd72	0.07854737
93	0xbe166c04	-0.14689642
94	0xbd0ffe38	-0.03515455
95	0x3d9cfdd4	0.076656014
96	0xbd8a2870	-0.06745994
97	0x3d0c7607	0.034292247
98	0xbd4721eb	-0.04861633
99	0x3db43336	0.0879883
100	0xbad425e4	-0.0016185609
101	0x3d6bac6e	0.05753749
102	0xbe021a6d	-0.12705393
103	0x3ce20f29	0.02759512
104	0x3d0eccb4	0.03486319
105	0xbdac7578	-0.08420843
106	0xbc07f9cd	-0.008299303
107	0xbc6775ac	-0.014127176
108	0x3df44030	0.11926305
109	0xbe18adc1	-0.14910032
110	0x3da3bd59	0.079950996
111	0xbd15a2c3	-0.036532175
112	0x3d590d54	0.052991226
113	0xbd0c816e	-0.03430312
114	0xbe7a2d75	-0.24431403
115	0x3dfe2721	0.12409807
116	0x3d60d1ae	0.054887466
117	0xbc5928ee	-0.013254387
118	0x3d442188	0.04788354
119	0xbe1f97e8	-0.15585291
120	0x3dc404e5	0.09571246
121	0x3d40defa	0.047087647
122	0x3d40fffc	0.047119126
123	0x3b006be9	0.001959557
124	0xbd4abb85	-0.04949524
125	0x3d956584	0.07294753
126	0x3ccb55e5	0.024821231
127	0x3cdb5c48	0.026777402
128	0x3beac1a8	0.007164199
129	0x3d8649df	0.065570585
130	0xbd63faf1	-0.05565924
131	0x3d13b012	0.036056586
132	0x3ba100f8	0.0049134456
133	0x3cbd5aa2	0.023114506
134	0x3ccac3b6	0.024751525
135	0x3a8b7ca2	0.0010642002
136	0xbd9a1e64	-0.07525328
137	0xbcc113ce	-0.023569014
138	0xbd557733	-0.05211563
139	0xbdb0e00e	-0.08636485
140	0xbdb8cced	-0.090234615
141	0xbda7f3cf	-0.082008
142	0x3c3998ca	0.011327932
143	0x3d7d38e8	0.06182185
144	0x3b23b9c8	0.002498256
145	0xbdb286e0	-0.087171316
146	0x3d120a69	0.03565446
147	0xbdd311fe	-0.10306166
148	0x3d785abf	0.060633417
149	0xbde8011c	-0.113283366
150	0x3dc9c82c	0.09852633
151	0x3de63628	0.11240798
152	0x3da83536	0.08213274
153	0x3d28557f	0.04109716
154	0x3e20d93a	0.15707865
155	0x3dff4bbf	0.12465619
156	0x3c100eb7	0.008792571
157	0xbd765ea1	-0.06014884
158	0x3dcf5af3	0.10124769
159	0x3cfdd0b4	0.030983306
160	0x3d4defe1	0.050277594
161	0x3ca2c2f4	0.019868352
162	0xbe0428ee	-0.12906238
163	0x3e2ac84a	0.16677967
164	0x3d9138a8	0.070908844
165	0x3dfd0c44	0.12355855
166	0x3da2c789	0.079482146
167	0x3d9cf673	0.07664194
168	0x3cd68e7d	0.02619099
169	0xbdad1eb7	-0.08453124
170	0xbdf755a1	-0.12076879
171	0x3d5bbc51	0.05364639
172	0x3d96b2aa	0.07358296
173	0x3d1624f5	0.03665634
174	0xbc33a7c2	-0.01096529
175	0x3da3941a	0.079872325
176	0x3e0f8a92	0.14017704
177	0xbd72853b	-0.05920909
178	0x3dc642d4	0.09680715
179	0xbe108c9b	-0.14116137
180	0x3d7a16a5	0.06105675
181	0x3ccba07b	0.024856796
182	0xbcbf7451	-0.023370894
183	0x3e1ece42	0.15508369
184	0x3de91c9d	0.11382411
185	0xbd6b2252	-0.057405777
186	0x3c8e6d91	0.01738623
187	0xbe3a52d7	-0.18195663
188	0x3c344c73	0.011004555
189	0x3cd28a5a	0.025700737
190	0x3dee4a38	0.1163525
191	0x3d73ddcd	0.059537698
192	0x3d463f32	0.04840011
193	0x3dc85f7c	0.09783837
194	0xbe5bb85c	-0.21457046
195	0xbe0f8684	-0.14016157
196	0xbd8d553f	-0.06901025
197	0xbc57dc2b	-0.013175051
198	0xbcc9d035	-0.024635414
199	0x3dade56d	0.08491025
200	0xbe1b67f9	-0.15176381
201	0x3c824a30	0.015904516
202	0x3e53941a	0.20661965
203	0x3dae4d10	0.08510792
204	0x3c85457e	0.016268488
205	0x3d6ee8cf	0.058327492
206	0xbe86d564	-0.2633468
207	0xbb473210	-0.003039483
208	0xbbecc51c	-0.0072256457
209	0x3c15b809	0.009138116
210	0x3d88860b	0.06666192
211	0x3dac8879	0.084244676
212	0x3dcd918a	0.10037525
213	0x3d93c528	0.07215339
214	0x3d533ec7	0.05157354
215	0x3d6410a6	0.05567994
216	0xbe0848f3	-0.13309078
217	0x3de960c3	0.11395409
218	0x3d335c04	0.043788925
219	0x3c8f19eb	0.017468413
220	0xbe6caa1f	-0.23111771
221	0x3cd1d924	0.025616236
222	0x3dfb8315	0.12280861
223	0x3d881c09	0.06645972
224	0x3db59f2c	0.0886825
225	0x3d263c88	0.04058507
226	0x3ca2be25	0.019866059
227	0x3d75cf71	0.060012285
228	0xbe80cb40	-0.25155067
229	0x3e288d08	0.16460049
230	0x3cafe0af	0.021469442
231	0xbdb18306	-0.08667569
232	0x3da4817f	0.08032512
233	0x3d6a9fa6	0.05728116
234	0x3c8cfa3c	0.017209165
235	0x3d9a7d33	0.07543411
236	0xbd24c7d3	-0.04022963
237	0xbda2dbb2	-0.0795206
238	0x3dd7d014	0.10537735
239	0xbdb78063	-0.08960035
240	0xbe565741	-0.20931722
241	0x3d5a8587	0.053349998
242	0x3d28a26a	0.041170515
243	0x3de30e6a	0.11086734
244	0xbdbd30a0	-0.0923779
245	0x3dae6ae2	0.0851648
246	0xbb44ce25	-0.0030030098
247	0x3d880d86	0.066432044
248	0xbc20d10a	-0.009815464
249	0xbe47e380	-0.19520378
250	0x3ae4486f	0.0017416606
251	0x3d735324	0.05940546
252	0xbda6064f	-0.08106672
253	0x3d8f8380	0.070075035
254	0xbdfc077c	-0.12306115
255	0x3dc657b7	0.09684699

fc1.bias f4 [64]
0	0x3e8c38e6	0.2738716
1	0x3de361e8	0.111026585
2	0x3e071a46	0.13193616
3	0x3e4e135e	0.20124575
4	0x3e2de626	0.16982326
5	0x3df5f543	0.120096706
6	0x3e48c172	0.19605044
7	0x3e84c5d0	0.2593217
8	0x3e7280d0	0.2368195
9	0x3e7aa1e7	0.24475823
10	0x3e47c8d2	0.195102
11	0xbcbaa441	-0.0227834
12	0xbe35dba2	-0.17759565
13	0x3e339e85	0.17540939
14	0xbdf09cad	-0.117486335
15	0xbe0e877c	-0.1391887
16	0x3e854578	0.26029563
17	0xbecdda53	-0.4020563
18	0x3e244623	0.1604238
19	0x3e40b583	0.18819241
20	0x3e8adc45	0.27121177
21	0xbe5c92e4	-0.2154041
22	0xbdcada43	-0.09904911
23	0x3e5661f7	0.20935808
24	0x3e56e94b	0.20987432
25	0x3dcf9022	0.10134913
26	0x3e956a12	0.29182488
27	0x3e389850	0.18026853
28	0x3e7cbeab	0.24682109
29	0x3e4d253f	0.2003374
30	0x3e40a570	0.1881311
31	0x3e9816d6	0.29704922
32	0xbdc12885	-0.094315566
33	0x3e49cd16	0.1970714
34	0x3e9e5cec	0.3093027
35	0x3e5325b6	0.20619854
36	0x3e9e2e97	0.3089492
37	0x3e98c835	0.29840246
38	0xbe33f24e	-0.175729
39	0x3e6f0ff5	0.23345931
40	0xbe5c736b	-0.21528403
41	0x3e1d5e2b	0.15367953
42	0x3df8ca65	0.12147979
43	0x3de60d60	0.1123302
44	0x3ddb74f8	0.107156694
45	0x3ea2479a	0.31695253
46	0x3e64d899	0.2234825
47	0x3ea279fc	0.31733692
48	0xbdfb823e	-0.12280701
49	0x3e3f5893	0.18686132
50	0xbd73daf7	-0.059534993
51	0x3e3b3fc1	0.18286039
52	0x3e6b5ee1	0.22985412
53	0x3e45ab59	0.19303645
54	0x3e50772d	0.20357962
55	0x3e65d244	0.22443491
56	0x3e93a60f	0.2883763
57	0xbdee430c	-0.11633882
58	0xbe1a2ef5	-0.15056975
59	0x3e6cc65c	0.23122543
60	0x3e4d22dd	0.2003283
61	0x3e5f3ca3	0.21800475
62	0xbe763084	-0.24041945
63	0xbe2ab338	-0.16669929

fc2.weight f4 [1, 64]
0	0x3db68b1f	0.08913254
1	0xbe94a809	-0.2903445
2	0xbe96aee7	-0.29430315
3	0x3e07b7f1	0.13253762
4	0xbe997a6c	-0.29976213
5	0xbe89084d	-0.26764145
6	0x3e193680	0.14962196
7	0x3dcddc81	0.100518234
8	0x3e5d6283	0.2161961
9	0x3e33885a	0.17532483
10	0x3e15c9ac	0.14627713
11	0x3d143371	0.03618187
12	0xbd28d77f	-0.041221138
13	0x3e313194	0.17304069
14	0xbd40330c	-0.046923682
15	0xbdda09ed	-0.106464244
16	0x3e235971	0.15952088
17	0xbe52a86a	-0.20572057
18	0x3e04cbf6	0.1296843
19	0x3dfc0e57	0.123074226
20	0x3dad8d88	0.084742606
21	0xbea171cb	-0.3153213
22	0xbddeb571	-0.10874451
23	0x3e86e2ce	0.26344913
24	0x3e12ae0f	0.1432421
25	0x3de512dc	0.11185238
26	0x3e3c0a77	0.18363367
27	0x3e16f0ec	0.14740342
28	0x3e1c4945	0.15262325
29	0x3e1dcd78	0.15410411
30	0x3deaa375	0.11456958
31	0x3e8a7e6d	0.2704958
32	0xb99352b9	-0.00028099658
33	0x3e06e23e	0.13172242
34	0x3dcaee34	0.09908715
35	0xbe8f9e73	-0.28050575
36	0x3dd04858	0.101700485
37	0x3dc8c0bb	0.098023854
38	0xbdb57014	-0.08859268
39	0x3de8e6c5	0.11372141
40	0xbd8312c1	-0.064000614
41	0x3db76424	0.08954647
42	0xbeac9a56	-0.337115
43	0x3e206c1e	0.15666243
44	0x3e24a9df	0.16080426
45	0x3e1b0410	0.15138268
46	0x3da816cc	0.08207473
47	0x3e19464e	0.14968225
48	0xbdaf9be9	-0.085746594
49	0x3e22a0ef	0.15881704
50	0xbdc1c33f	-0.09461068
51	0xbea2a6f1	-0.3176799
52	0x3dbe4407	0.09290319
53	0x3e264ad6	0.16239485
54	0x3e0250b6	0.12726101
55	0x3dcd79fa	0.10033031
56	0x3dadffb0	0.08496034
57	0xbc97010d	-0.018433118
58	0xbd868fa6	-0.065703675
59	0x3e28819e	0.16455695
60	0x3e0ffff0	0.14062476
61	0x3e1f2846	0.15542707
62	0xbe6f2fd4	-0.23358089
63	0xbc5d8c54	-0.013522226

exp_avg f4 [64]
0	0xbc7d4c6a	-0.015460113
1	0xbc081c7c	-0.008307572
2	0xbe72d540	-0.23714161
3	0x3d0617f2	0.03273768
4	0x3e888c6c	0.26669633
5	0xbc3dde21	-0.011588604
6	0x3f91d34a	1.1392605
7	0x3dd16769	0.10224802
8	0x3b93a46c	0.0045056846
9	0x3d940214	0.07226959
10	0xbcdcbbec	-0.026945077
11	0xbd0ee5c4	-0.03488709
12	0xbe7a1966	-0.24423751
13	0xbcc00fc8	-0.023445025
14	0x3cafc76a	0.021457393
15	0xbc02ad39	-0.00797587
16	0xbcf069ac	-0.029347263
17	0x3b58c883	0.0033078499
18	0x3e73f84b	0.23825185
19	0xbd23700c	-0.039901778
20	0xbcec5b1b	-0.028852036
21	0x3f080ccb	0.5314452
22	0xbba89d32	-0.0051456923
23	0x3c91ad73	0.017782902
24	0xbdc1d7c7	-0.094649844
25	0x3d555889	0.052086387
26	0xbce35ea6	-0.027755093
27	0xbdf8386b	-0.12120136
28	0xbc94fd54	-0.018187203
29	0x3bab66cd	0.0052307607
30	0x3e8dfd63	0.2773238
31	0xbd64f2b6	-0.05589553
32	0xbc12776e	-0.008939607
33	0xbc9af1b7	-0.018914087
34	0x3ce1658f	0.027514247
35	0x3cb76eb5	0.022391656
36	0x3ea3417d	0.318859
37	0x3fe25fb0	1.7685452
38	0xbba31749	-0.004977141
39	0x3953d0f0	0.00020200363
40	0xbc11b8b4	-0.008894134
41	0x3d92c852	0.07167114
42	0x3a9ae762	0.0011818225
43	0xbfc5694b	-1.5422758
44	0xbba18233	-0.004928851
45	0x3d3e2132	0.046418376
46	0x3ccf254f	0.025286345
47	0xbc14bec8	-0.009078689
48	0x3df521fe	0.11969374
49	0x3e68eec0	0.22747326
50	0x3d775b69	0.06038991
51	0x3d9dc56d	0.077036716
52	0xbeaceec2	-0.33775908
53	0xbeb6a131	-0.35669854
54	0x3d17b95f	0.037042018
55	0x3d9b3099	0.07577629
56	0x3eb25e78	0.348377
57	0xbe933507	-0.28751394
58	0xbf0361bd	-0.5132101
59	0xbc02741c	-0.007962253
60	0x3e6e9c42	0.23301795
61	0xbc3b768f	-0.011441841
62	0x3cffa271	0.031205388
63	0xba69f757	-0.0008925101

exp_avg_sq f4 [64]
0	0x3b901b95	0.0043978193
1	0x3a4c4a07	0.00077930134
2	0x40891c99	4.284741
3	0x3c820dd5	0.015875736
4	0x3e72879c	0.23684543
5	0x3b71e3a7	0.0036909373
6	0x411f173e	9.943174
7	0x411a50a0	9.644684
8	0x3a314aaf	0.0006763143
9	0x3cede969	0.029041963
10	0x3dca5560	0.09879565
11	0x3bba593b	0.0056869066
12	0x3e5fbbaf	0.2184894
13	0x3b79a175	0.003809062
14	0x3b20447a	0.0024454878
15	0x3a9a5646	0.0011774979
16	0x3b1f53ed	0.0024311498
17	0x3a1b1ff2	0.0005917541
18	0x3e014743	0.1262484
19	0x3d6a1732	0.057151027
20	0x3ee22dfc	0.44175708
21	0x3ee4dfc6	0.44701976
22	0x38f2c9fd	0.000115770825
23	0x3e115391	0.14192034
24	0x3e4c24d5	0.19935925
25	0x3d90761c	0.070537776
26	0x3c6869fb	0.014185424
27	0x3f37ab58	0.71745825
28	0x3ba3ef96	0.005002926
29	0x3c4c3278	0.012463205
30	0x3f9c589a	1.2214539
31	0x3cb08355	0.021546999
32	0x3c399ab5	0.011328389
33	0x3cc5d14c	0.024147652
34	0x3c2bed0f	0.010493531
35	0x3b0165f8	0.0019744616
36	0x3ecba978	0.39777732
37	0x4200027c	32.002426
38	0x3bf9872e	0.0076149916
39	0x3ba3e8cf	0.005002118
40	0x3aae541b	0.0013300212
41	0x3cbab5c6	0.022791754
42	0x3d119784	0.035544887
43	0x40edfe5b	7.4372993
44	0x3b5b86af	0.0033497026
45	0x3ee9e744	0.45684254
46	0x3c26792f	0.010160728
47	0x3a104bb7	0.00055044465
48	0x3d86fe11	0.06591428
49	0x3f236296	0.63822305
50	0x3d84468f	0.064587705
51	0x3d27c428	0.040958554
52	0x3e87ad11	0.26499227
53	0x3f81258d	1.0089585
54	0x3da4544c	0.08023891
55	0x3cb7a84d	0.02241912
56	0x3dfe8eee	0.124296054
57	0x3e9e2b0e	0.30892223
58	0x3f78cfdb	0.9719216
59	0x3a8e7050	0.0010867212
60	0x3dd62c6f	0.10457694
61	0x39f371d8	0.00046433392
62	0x3bad6e3f	0.0052926834
63	0x3760f426	1.3408286e-05

exp_avg f4 [64, 7]
0	0xbd92b507	-0.071634345
1	0x3de0bc04	0.10973361
2	0xbf89cdb9	-1.0765907
3	0xbfbd9bbf	-1.4813155
4	0xbfcc93be	-1.5982587
5	0x3edb2f90	0.42809725
6	0xbff27acc	-1.8943725
7	0x3daaa71f	0.08332657
8	0x3f172dd0	0.5905428
9	0xbf669b23	-0.9008047
10	0x3e870c18	0.26376414
11	0xbf2c9560	-0.6741543
12	0x3ec31571	0.38102296
13	0x3c995580	0.018717527
14	0x3b4edb61	0.0031563865
15	0x39475460	0.00019009551
16	0x3bc53dfc	0.006019352
17	0xbb1c302e	-0.0023832428
18	0xbf0c198e	-0.54726493
19	0xc10edaec	-8.928448
20	0xbefa0555	-0.48832193
21	0xbf8a31dd	-1.0796467
22	0x3e43c426	0.19117793
23	0xc07327cb	-3.7993038
24	0xbec928b6	-0.39288872
25	0x3eeeb1bf	0.46619985
26	0x3fc499ba	1.5359414
27	0xc0740869	-3.8130133
28	0x3ea1de39	0.31614855
29	0x416abfb4	14.6718025
30	0x3ec9688c	0.39337575
31	0x41774d9f	15.45645
32	0xc072fbf8	-3.796629
33	0x420ea24a	35.658485
34	0x40148c12	2.3210492
35	0xbdf0ff6d	-0.117674686
36	0xbf2d72da	-0.67753375
37	0xbeecacf3	-0.462257
38	0xbf8107b5	-1.0080477
39	0xbf66148d	-0.8987511
40	0x3e0594cc	0.13045043
41	0xc009bda7	-2.1522005
42	0xc0640d49	-3.5633109
43	0xc029f372	-2.6554837
44	0x4003adb8	2.057478
45	0xc21c95ab	-39.14616
46	0xc10d302f	-8.824264
47	0xc1f7b9ea	-30.965778
48	0x426121bb	56.28294
49	0xbf944aa6	-1.1585281
50	0xc025b7fc	-2.5893545
51	0xc06ff9c8	-3.7496204
52	0xbfd95b35	-1.6980959
53	0xc12b447f	-10.704223
54	0xc02b90d8	-2.6807156
55	0x3fbb6954	1.4641519
56	0xbeaea7a5	-0.34112278
57	0x3f11574d	0.56773835
58	0xbd68e315	-0.056857187
59	0x3d11fea3	0.03564323
60	0x3da2e177	0.0795316
61	0xbea8721f	-0.32899567
62	0xbf08564f	-0.53256696
63	0xc075f16c	-3.8428602
64	0xc0c17ea2	-6.046708
65	0xc082ff5e	-4.0936728
66	0xc0ac0e4a	-5.3767443
67	0xc0c4a486	-6.1450834
68	0xc1251348	-10.317207
69	0xc0eb7e0b	-7.359136
70	0x3f3a5d6a	0.7279879
71	0xbff3eb93	-1.9056267
72	0x406ede7c	3.7323294
73	0x403781a9	2.8672888
74	0x40c8053a	6.250638
75	0x40967206	4.701419
76	0x4004f030	2.07716
77	0x3d10babf	0.035334345
78	0x3f391266	0.722937
79	0x3eaa81a9	0.33302048
80	0x3e8e7b62	0.2782851
81	0x3e4e9703	0.20174794
82	0x3f544b9f	0.8292789
83	0xbea47ac2	-0.32124907
84	0xc017f3a1	-2.374245
85	0xbffeff1f	-1.9921607
86	0xc0b9e725	-5.809466
87	0xc0252ed7	-2.5809839
88	0xc0ba42f3	-5.8206725
89	0xc0a85eaa	-5.2615557
90	0xc1015977	-8.084342
91	0x3ba441c2	0.0050127218
92	0x3f189519	0.59602505
93	0x3e8d02e5	0.2754127
94	0x3dabe70c	0.08393678
95	0x3f66aacc	0.90104365
96	0x40162fb3	2.3466613
97	0x3f4b6816	0.794557
98	0xbee36b50	-0.4441781
99	0x3d86ec9f	0.06588101
100	0x3eade7a5	0.33965793
101	0xbf522810	-0.8209238
102	0x3eab2ffa	0.3343504
103	0xbd606156	-0.054780327
104	0xbfafabb2	-1.3724272
105	0xbea7a1bd	-0.32740584
106	0xbe324ab0	-0.17411304
107	0xbf44436c	-0.7666538
108	0x3d2578ed	0.040398527
109	0xbf8ab0a3	-1.0835155
110	0xbea4a289	-0.32155254
111	0xbfcf7fed	-1.6210915
112	0x3ea59a9a	0.32344514
113	0x3f39d4a6	0.725901
114	0x3e962f11	0.29332784
115	0x3f03807b	0.5136792
116	0x3f4b043a	0.79303324
117	0x3f742928	0.953753
118	0x3edb45d9	0.42826727
119	0xbebe1496	-0.3712508
120	0x3d94b9e0	0.07262015
121	0xbb602d40	-0.0034206659
122	0x3da4fde1	0.08056236
123	0xbde0cc29	-0.109764405
124	0xbdb6a66a	-0.0891846
125	0x3bc6be3f	0.0060651596
126	0x407e1f7a	3.9706712
127	0x41808a78	16.067612
128	0x414f3ce4	12.952366
129	0x41a3ba01	20.465822
130	0x412b248c	10.696423
131	0x420a9da8	34.65396
132	0x41fd8d8b	31.694113
133	0x411a2ed8	9.636436
134	0x41392756	11.5721035
135	0x40b2602d	5.57424
136	0x41164424	9.391636
137	0x41278695	10.470357
138	0x401f23a7	2.486551
139	0x4138a174	11.539417
140	0xc10fa6d8	-8.978233
141	0xbf599e54	-0.85007215
142	0xc0b945d8	-5.789776
143	0xc0a599cb	-5.1750236
144	0xc0ff52fd	-7.9788804
145	0xc0c28a1c	-6.079359
146	0xc11d0060	-9.812592
147	0x40565922	3.3491902
148	0xc0d8cb58	-6.774822
149	0x407301b4	3.796979
150	0xc01074c6	-2.2571273
151	0xbe123890	-0.1427939
152	0xbd891d0f	-0.066949956
153	0xc005d985	-2.0914013
154	0xbdc1290b	-0.094316565
155	0xbebfc9ec	-0.37458742
156	0x3e8f96bf	0.28044698
157	0xbd92f94d	-0.071764566
158	0x3da18e47	0.078884654
159	0x3e81f22f	0.25380084
160	0x3e82ba81	0.25532916
161	0xc0892f64	-4.287035
162	0xc17e70f5	-15.902577
163	0x411edcc3	9.928897
164	0xc1b5f25f	-22.743345
165	0x40e604a3	7.188066
166	0xc2891317	-68.537285
167	0x41c35367	24.415724
168	0xbfd8a4a3	-1.6925243
169	0xbfad0dd5	-1.3519846
170	0xc14d5d5c	-12.835293
171	0x3f65a3ee	0.8970326
172	0xbddf9b75	-0.10918323
173	0xc1cda9e3	-25.707952
174	0xc0c12212	-6.035409
175	0x3e9656cb	0.29363093
176	0xbf11d13c	-0.5695989
177	0x3eb199bf	0.3468761
178	0xbeb47471	-0.35245088
179	0xbf814ca8	-1.0101519
180	0xbfde6841	-1.7375566
181	0xc076d00c	-3.8564482
182	0x3fdfe279	1.7490989
183	0x3e311523	0.1729322
184	0xbe9adf35	-0.30248418
185	0x3fdeffd0	1.7421818
186	0xbf202c83	-0.6256792
187	0x3fda3888	1.7048502
188	0xbf60b509	-0.8777624
189	0x3e84df2e	0.25951523
190	0xc052a531	-3.2913325
191	0x3e832f96	0.25622243
192	0xc0a11b08	-5.0345497
193	0xbec80693	-0.39067516
194	0xc077ca8e	-3.871738
195	0xc13e6645	-11.899968
196	0xc0483dcc	-3.1287718
197	0x3f662f3d	0.8991583
198	0x3f28937b	0.6585004
199	0xbf6bbfd3	-0.92089576
200	0x3d197913	0.03746898
201	0xc012a899	-2.2915404
202	0xc03da046	-2.9629073
203	0xbe6c492c	-0.23074788
204	0x3fb76d72	1.4330275
205	0x3e9e5274	0.30922282
206	0xbfa4d660	-1.2877922
207	0x3f1bfce3	0.6093275
208	0x3d9e0510	0.07715809
209	0xc0729fd3	-3.791005
210	0xbfc17905	-1.5115057
211	0xbfc5b3a8	-1.5445452
212	0xbfafc2e6	-1.3731353
213	0xbfff9eed	-1.9970375
214	0xbeece89a	-0.4627121
215	0xbfedb4b2	-1.8570769
216	0xc1017dcb	-8.093211
217	0x3dd0415f	0.101687185
218	0x3eb5c049	0.35498264
219	0xbf2ac754	-0.667104
220	0x3ff8bdf8	1.9432974
221	0xbf955243	-1.1665729
222	0x400a3876	2.159696
223	0xc01ac742	-2.4184117
224	0xbefa98ef	-0.48944804
225	0x3ef82fc2	0.48473936
226	0x3d1ccf3f	0.038283583
227	0xbf2caf97	-0.6745543
228	0xbf281cfb	-0.6566922
229	0xbe821bb7	-0.2541177
230	0x3e2a0441	0.16603185
231	0x400f6cb7	2.2410104
232	0x3f25dd90	0.647912
233	0x3faa0e90	1.3285694
234	0xbfaf259c	-1.3683352
235	0x4037d678	2.8724651
236	0x406482a8	3.5704746
237	0x409090c7	4.517673
238	0x3df70495	0.12061421
239	0x40a54244	5.164339
240	0x3fa77ea5	1.3085524
241	0x40a63da5	5.195025
242	0x40393969	2.894129
243	0x40faf78f	7.8427196
244	0x405ce244	3.4513102
245	0x3f22feec	0.6367023
246	0x3e53d084	0.20685011
247	0x3e8f94e8	0.28043294
248	0x3da8d8aa	0.082444504
249	0x3f2c8275	0.6738656
250	0x3f367390	0.71270084
251	0x3f05b312	0.52226365
252	0xc03975be	-2.8978114
253	0x3fb0ec20	1.382206
254	0xc116ef14	-9.433369
255	0x40528e42	3.2899327
